…
==================================================
Top label numbers: 7644
Number of classes: 7644
3-Layer MLP Model: 640 -> 1280 -> 640 -> 7644
Dropout rate: 0.2
Trainable parameters:
fc1.weight: torch.Size([1280, 640])
fc1.bias: torch.Size([1280])
fc2.weight: torch.Size([640, 1280])
fc2.bias: torch.Size([640])
fc3.weight: torch.Size([7644, 640])
fc3.bias: torch.Size([7644])
----------------------------------------------------------------
        Layer (type)               Output Shape         Param #
================================================================
            Linear-1                 [-1, 1280]         820,480
              ReLU-2                 [-1, 1280]               0
           Dropout-3                 [-1, 1280]               0
            Linear-4                  [-1, 640]         819,840
              ReLU-5                  [-1, 640]               0
           Dropout-6                  [-1, 640]               0
            Linear-7                 [-1, 7644]       4,899,804
================================================================
Total params: 6,540,124
Trainable params: 6,540,124
Non-trainable params: 0
----------------------------------------------------------------
Input size (MB): 0.00
Forward/backward pass size (MB): 0.10
Params size (MB): 24.95
Estimated Total Size (MB): 25.05
----------------------------------------------------------------
biological_process  Epoch [1/30], Step [100/4001], Loss: 0.5206
…
==================================================
Top label numbers: 1484
Number of classes: 1484
3-Layer MLP Model: 640 -> 1280 -> 640 -> 1484
Dropout rate: 0.2
Trainable parameters:
fc1.weight: torch.Size([1280, 640])
fc1.bias: torch.Size([1280])
fc2.weight: torch.Size([640, 1280])
fc2.bias: torch.Size([640])
fc3.weight: torch.Size([1484, 640])
fc3.bias: torch.Size([1484])
----------------------------------------------------------------
        Layer (type)               Output Shape         Param #
================================================================
            Linear-1                 [-1, 1280]         820,480
              ReLU-2                 [-1, 1280]               0
           Dropout-3                 [-1, 1280]               0
            Linear-4                  [-1, 640]         819,840
              ReLU-5                  [-1, 640]               0
           Dropout-6                  [-1, 640]               0
            Linear-7                 [-1, 1484]         951,244
================================================================
Total params: 2,591,564
Trainable params: 2,591,564
Non-trainable params: 0
----------------------------------------------------------------
Input size (MB): 0.00
Forward/backward pass size (MB): 0.06
Params size (MB): 9.89
Estimated Total Size (MB): 9.94
----------------------------------------------------------------
molecular_function  Epoch [1/30], Step [100/4001], Loss: 0.4765
…
==================================================
Top label numbers: 1025
Number of classes: 1025
3-Layer MLP Model: 640 -> 1280 -> 640 -> 1025
Dropout rate: 0.2
Trainable parameters:
fc1.weight: torch.Size([1280, 640])
fc1.bias: torch.Size([1280])
fc2.weight: torch.Size([640, 1280])
fc2.bias: torch.Size([640])
fc3.weight: torch.Size([1025, 640])
fc3.bias: torch.Size([1025])
----------------------------------------------------------------
        Layer (type)               Output Shape         Param #
================================================================
            Linear-1                 [-1, 1280]         820,480
              ReLU-2                 [-1, 1280]               0
           Dropout-3                 [-1, 1280]               0
            Linear-4                  [-1, 640]         819,840
              ReLU-5                  [-1, 640]               0
           Dropout-6                  [-1, 640]               0
            Linear-7                 [-1, 1025]         657,025
================================================================
Total params: 2,297,345
Trainable params: 2,297,345
Non-trainable params: 0
----------------------------------------------------------------
Input size (MB): 0.00
Forward/backward pass size (MB): 0.05
Params size (MB): 8.76
Estimated Total Size (MB): 8.82
----------------------------------------------------------------
cellular_component  Epoch [1/30], Step [100/4001], Loss: 0.4815
…
